…
To enable them in other operations, rebuild TensorFlow with the appropriate compiler flags.
Found 3513 files belonging to 2 classes.
Using 702 files for validation.
['empty', 'pallet']
2021-04-27 21:43:00.621027: I tensorflow/compiler/mlir/mlir_graph_optimization_pass.cc:176] None of the MLIR Optimization Passes are enabled (registered 2)
(32, 500, 15, 3)
(32,)
Model: "sequential"
_________________________________________________________________
Layer (type)                 Output Shape              Param #
=================================================================
rescaling_1 (Rescaling)      (None, 500, 15, 3)        0
_________________________________________________________________
conv2d (Conv2D)              (None, 500, 15, 16)       448
_________________________________________________________________
max_pooling2d (MaxPooling2D) (None, 250, 7, 16)        0
_________________________________________________________________
conv2d_1 (Conv2D)            (None, 250, 7, 32)        4640
_________________________________________________________________
max_pooling2d_1 (MaxPooling2 (None, 125, 3, 32)        0
_________________________________________________________________
conv2d_2 (Conv2D)            (None, 125, 3, 64)        18496
_________________________________________________________________
max_pooling2d_2 (MaxPooling2 (None, 62, 1, 64)         0
_________________________________________________________________
flatten (Flatten)            (None, 3968)              0
_________________________________________________________________
dense (Dense)                (None, 128)               508032
_________________________________________________________________
dense_1 (Dense)              (None, 2)                 258
=================================================================
Total params: 531,874
Trainable params: 531,874
Non-trainable params: 0
_________________________________________________________________
Epoch 1/10
2021-04-27 21:43:14.103632: I tensorflow/core/kernels/data/shuffle_dataset_op.cc:177] Filling up shuffle buffer (this may take a while): 44 of 1000
2021-04-27 21:43:21.074103: I tensorflow/core/kernels/data/shuffle_dataset_op.cc:230] Shuffle buffer filled.
…
